AkshayaaRNNpredict.pt (torch, 53153 bytes, 9 tensors)

rnn.weight_ih_l0 f4 [64, 1]
000000 6c 5e b3 bd e4 31 ef bd e5 51 a8 bc 25 07 0f 3d
       -0.08758244 -0.11679438 -0.020546863 0.034918923
000010 dd 8c f9 3d b1 b1 8e 3d 33 2b b0 bd 9c b8 78 bc
       0.12185071 0.06967486 -0.086019896 -0.015180733
000020 02 34 ab 3d d8 93 3d bc eb 7a d3 bd d9 2a e7 3d
       0.08359529 -0.011570893 -0.10326179 0.112874694
000030 83 6e 8b bd 3c b2 f9 3d ec 1b 81 bd 60 0c 22 3e
       -0.06808188 0.12192199 -0.06304154 0.15825033
000040 7a 6e 6b 3d 8f 6f 5c bd a1 72 c4 3d 2d fb 39 bd
       0.057478406 -0.053817328 0.09592176 -0.045405556
000050 f9 dd 1a 3d 41 97 25 bd 80 4c f8 bd 19 e3 9a 3d
       0.037809346 -0.04042745 -0.12123966 0.07562847
000060 c2 5f 86 bd 79 47 da bd 88 ed a8 3d cf 1b ea 3d
       -0.06561233 -0.106581636 0.082484305 0.11431085
000070 16 e0 3f bd af 93 50 bd 53 13 80 3d a0 20 bb bd
       -0.046844564 -0.050922092 0.06253686 -0.09137082
000080 fb ab 8f bc 71 e3 ad 3c a4 13 9b 3b 69 de 48 3d
       -0.017538061 0.021226617 0.004732566 0.04904023
000090 e4 d0 02 be 19 28 17 be 98 31 02 3d 68 78 48 3d
       -0.12774998 -0.1476139 0.031785578 0.048942953
0000a0 3f 16 21 bd 1b 55 05 3e 78 6b 03 bc 88 92 a2 3d
       -0.039327856 0.13020746 -0.008021228 0.07938105
0000b0 15 08 ea 3d ce 8f 9a bd 4d 06 1f be fa 70 e4 bd
       0.11427323 -0.0754696 -0.15529747 -0.11154361
0000c0 b6 41 6c bd e3 48 f2 3d 14 7e 93 3d ef a3 8e 3d
       -0.057679854 0.11830308 0.07201782 0.069648616
0000d0 1b 62 bd bd c3 a7 d7 bd 49 e6 b4 3d 5c 4d 44 bd
       -0.09247228 -0.10530045 0.08832986 -0.04792534
0000e0 32 bf af 3d f9 e7 a1 bc ec 28 89 bd 46 ad 57 3d
       0.085813895 -0.019763933 -0.06697258 0.05265548
0000f0 46 44 01 be 72 4e d5 bc cc 82 72 bc dd 12 ee 3c
       -0.126237 -0.026038382 -0.014801692 0.02906173

rnn.weight_hh_l0 f4 [64, 64]
000000 7f 61 d4 3d fe 85 f8 bc 3b 2a bf 3d 6a 8f bc 3b
       0.103701584 -0.03033733 0.09334227 0.005754401
000010 6e ec bb bd c1 74 9d 3d a6 34 87 3d 7f 45 f7 3d
       -0.09175955 0.07688285 0.06601839 0.12073802
000020 dc 8e 01 be 79 2a a3 3d ae a5 a8 3d 3a 0e c0 bd
       -0.12652153 0.079670854 0.08234726 -0.093777135
000030 73 c5 03 3c 8f 57 85 bc ac 1a f5 3d 1e c9 78 3d
       0.008042681 -0.016277103 0.11967978 0.060738675
000040 7e 5a e0 bc 85 09 db 3d 8f bd f7 bb 44 aa 8a 3c
       -0.0273869 0.10695175 -0.007560439 0.016926892
000050 41 2e f2 3d 01 58 01 3e 1c 51 58 bd 13 48 ca 3c
       0.118252285 0.12631227 -0.052811727 0.02469257
000060 4a 1d b3 3c aa 5b bc 3b e5 d2 01 bd f8 00 aa bb
       0.021864552 0.005748232 -0.031695265 -0.0051881038
000070 f2 89 eb 3d 93 45 cc 3d 2b ca 5f 3d 06 cc 97 3b
       0.1150092 0.09974208 0.05463616 0.004632476
000080 43 b1 06 bd a4 01 bf 3d ee ba 74 bd f6 a9 de bd
       -0.032883894 0.09326485 -0.059748583 -0.10872261
000090 ba 89 73 bd 9c 78 00 3d d1 df 26 3c 01 fc 91 bd
       -0.05945752 0.031365022 0.010185198 -0.07128144
0000a0 1f e6 37 bd 3d 52 91 bd ce 9a 84 3c 35 73 9e 3d
       -0.044897195 -0.07095764 0.016187098 0.07736818
0000b0 47 08 3f 3c 57 f2 cf 3d 38 b4 e1 3d e8 63 bf 3c
       0.011659688 0.101536445 0.11020702 0.023363069
0000c0 47 b9 82 3b fc d2 c4 3d 67 c4 22 bd 8f 8e 9f 3d
       0.003989372 0.096105546 -0.039738085 0.07790863
0000d0 79 77 09 bd f5 23 d8 3d ab a7 6a 3d 30 b8 7e bd
       -0.033561204 0.10553733 0.057288807 -0.062187374
0000e0 7d 25 d6 bd e3 eb cb bd 28 28 34 3d 26 6f 77 3d
       -0.10456369 -0.09957101 0.04398361 0.060408734
0000f0 3a e9 b6 3d 83 4d 00 be a1 2f 9d bd 9b 18 26 bd
       0.08931203 -0.12529568 -0.076751 -0.04055081
000100 fd 24 ef bd cf bb be bd 0b 28 c9 3a 72 b7 bf 3d
       -0.11676977 -0.093131654 0.0015347017 0.09361161
000110 9c ee fc 3b ef 7a d3 bd 40 25 9d 3d f9 2d 9f 3d
       0.007718874 -0.10326182 0.076731205 0.077724405
000120 cf 7e e4 bc ea ac 68 3d 40 d0 25 3d 6f d2 a0 3c
       -0.027892498 0.05680553 0.040481806 0.019631593
000130 85 bb c7 3c 47 10 ea bd 88 e1 c0 3d 81 26 09 be
       0.024381408 -0.11428886 0.09418017 -0.13393594
000140 0f 12 a5 bd 43 8f 6c bd 30 f4 3e 3d 30 8f 03 be
       -0.08060085 -0.057753813 0.046619594 -0.1284759
000150 77 5f 96 bd 8a 4b 92 3d 5a d4 56 3d 16 69 37 bd
       -0.07342427 0.07143314 0.052448608 -0.044777952
000160 c7 3d 71 bd 2c 59 f7 bd de 78 0c 3e b9 a5 a9 3d
       -0.058896806 -0.12077555 0.13717982 0.08283562
000170 63 73 b6 3b 00 98 37 3d bd 88 23 bb 0d fb b8 3d
       0.0055679544 0.044822693 -0.0024953329 0.09032259
000180 a8 cb a8 bc 56 50 e2 bd 94 52 a2 3d da 17 2e 3d
       -0.020604923 -0.11050479 0.07925907 0.042503215
000190 fe 81 66 3c e2 32 0c 3d 51 4e 0b bd dd 94 04 3e
       0.0140690785 0.034228213 -0.034010235 0.12947412
0001a0 9a c6 1f 3c 0f dc df bd d3 cf 00 3e c2 9e 96 3d
       0.00975194 -0.10930645 0.12579279 0.073544994
0001b0 6f 6f bd bd cf 0e 53 3d 4e e0 48 3d 99 47 f1 3d
       -0.0924977 0.051527794 0.04904204 0.11781234
0001c0 0d 05 84 bc 59 33 26 bd 61 a1 11 bd a9 6c ba 3d
       -0.01611569 -0.040576313 -0.035554294 0.091027565
0001d0 32 ec f0 bd 84 76 1e 3c 61 c0 66 bd e4 b0 19 bd
       -0.11763801 0.009671811 -0.05633581 -0.03752221
0001e0 ae 37 c4 bd 93 f2 d1 3c 2f e5 c6 bd 02 ae 5c bd
       -0.095809326 0.025628364 -0.09711682 -0.053876884
0001f0 d9 9f 01 3e 71 5b 5d bd c3 de 6c 3d 1e d9 70 3d
       0.12658633 -0.054042283 0.05782963 0.05880081
000200 34 fa 91 3b ae ca f2 3c b9 ef 8a 3d 11 94 09 3d
       0.0044548754 0.02963766 0.06784005 0.033588473
000210 be fe 2b bd bd 61 68 3d 85 71 fb 3d 1e c1 a0 3d
       -0.041990988 0.056733835 0.122775115 0.07849334
000220 c0 67 f4 bd 40 ab b5 bd 21 d8 be bd 1e 74 45 bd
       -0.11933851 -0.08870554 -0.09318567 -0.04820644
000230 79 79 02 3e 99 d2 0c be 3a eb cb bc 46 4d af bd
       0.1274165 -0.13752212 -0.024892438 -0.085596606
000240 b3 17 aa 3c 56 9c 40 3d 88 a2 b7 bd b8 8c 81 bd
       0.020763254 0.047024094 -0.08966547 -0.06325668
000250 b3 39 f8 bd c0 a7 c2 3d 8b 80 bd bc d7 4c 02 be
       -0.1212038 0.09504652 -0.023132583 -0.12724625
000260 6f 16 98 bd 29 ec f3 3b db b5 40 3d 98 fb 64 3d
       -0.07426154 0.007443924 0.04704843 0.055904
000270 42 33 f9 3d ad 6b ba bd 9d 3a 70 bd 17 27 9b bd
       0.1216798 -0.09102569 -0.058649648 -0.07575815
000280 10 00 bd bd cd 0d 41 bc cd 24 b8 3d b9 82 1a bc
       -0.092285275 -0.0117830755 0.08991394 -0.009430581
000290 4b 7d e9 3d 2e e8 46 3d 39 66 b6 bd aa 0d b3 bd
       0.11400851 0.048561268 -0.08906216 -0.087428406
0002a0 4a 61 e8 bd f5 0b 14 be ac 14 23 3d 43 75 cb 3d
       -0.113466814 -0.14457686 0.039814636 0.09934475
0002b0 3a 19 43 3c f6 6a b8 bd 0f 1d 10 3d 3f 45 f4 bb
       0.01190787 -0.09004776 0.035183962 -0.007454544
0002c0 88 2e e7 3d 6b 83 60 3c 10 9b 17 3d 40 2c 4c bd
       0.11288172 0.0137032075 0.037013113 -0.049846888
0002d0 bf fc 5e bd 5d b3 fe 3d 02 7c b0 3d c7 cc f6 bd
       -0.054440256 0.124365546 0.086174026 -0.12050777
0002e0 51 d1 aa bd 30 2e 04 3d 4e 41 ad 3d 58 23 51 3d
       -0.08340705 0.03227061 0.084597215 0.051059097
0002f0 2c 9e df bd 70 eb 36 3c 8a f0 7b bd fd a0 60 3d
       -0.10918841 0.011164531 -0.061508693 0.05484103
000300 c8 77 79 bd a6 ac ba bd 30 7d a1 bd a1 da bd bc
       -0.060905248 -0.09114961 -0.07885206 -0.02317554
000310 df bc d3 bd 6e 71 dd bb 6d f8 37 3d 5b 7d 91 3d
       -0.10338759 -0.0067579066 0.04491465 0.07103988
000320 79 67 d8 3d b7 f6 e8 bd 4e 21 cc bd 0d c6 47 3c
       0.10566611 -0.11375182 -0.0996729 0.012193215
000330 db f5 e5 3b 28 84 13 be 99 ab 1a 3d 83 6e dc bd
       0.0070178336 -0.14405882 0.037761305 -0.10763266
000340 9a 7f f6 bd a6 6d 99 3d 31 6b df 39 ad b9 f3 bc
       -0.12036057 0.07491617 0.00042613738 -0.029751623
000350 5f 6e 45 bd ea 80 af 3d 00 c6 03 be 79 38 c4 bd
       -0.04820096 0.0856951 -0.128685 -0.09581084
000360 5d 5f c9 3c 1a 1e a0 3d 33 d1 3f bd 3a 52 5e bd
       0.024581606 0.078182414 -0.046830367 -0.054277636
000370 55 07 c8 3d c5 61 09 3b 6d 64 ae 3d ee e3 ea 3d
       0.097670235 0.0020962816 0.085152484 0.114692554
000380 d1 9b 87 3d 4a 15 d1 bc cc 16 f4 3d 80 82 b0 3d
       0.066215165 -0.025522847 0.11918411 0.08618641
000390 0d 88 e3 bd 95 d3 ee bb 7d f8 11 3d c6 50 43 bb
       -0.11109934 -0.007288406 0.035637368 -0.0029802783
0003a0 5f ee c9 3d ea 26 db bd 92 42 ab bd 49 eb de bd
       0.09859919 -0.10700782 -0.08362307 -0.10884721
0003b0 db 32 cc 3d 37 da ee 3d 17 57 56 bd 95 4f ee 3c
       0.099706374 0.11662715 -0.05232915 0.029090682
0003c0 72 28 fd bc 3e 42 9a 3d aa 15 10 3a 43 78 f6 bd
       -0.030903075 0.07532166 0.0005496392 -0.12034657
0003d0 c5 33 37 bd e3 dc bc bc dd 38 ec 3d 8a af 2b 3c
       -0.044727106 -0.023054546 0.11534283 0.0104788635
0003e0 5e 94 b3 bd 7a e4 09 bc c6 7e 61 3d e2 54 fc bd
       -0.08768533 -0.008416289 0.05505254 -0.123208776
0003f0 51 55 89 3d 4f b7 da bd c7 f1 1e 3d 50 f5 60 3d
       0.06705726 -0.106794946 0.038804796 0.05492145

rnn.bias_ih_l0 f4 [64]
000000 20 50 e5 bc 35 6b a1 bd 4c b5 f0 3d 5b 59 d3 bd
       -0.027992308 -0.07881776 0.1175333 -0.103197776
000010 25 4b 8f 3d 99 8b 1e 3c 34 38 d6 bd d0 2d 4b bd
       0.069967546 0.009676837 -0.10459939 -0.049604237
000020 0f 89 7a bb 32 e6 61 3d 6d 15 c3 3d 16 42 e6 3d
       -0.0038228666 0.055151172 0.09525571 0.11243074
000030 e9 b4 a0 3c 8a 11 fb 3d 95 d4 81 bd 4a 21 49 bd
       0.019617515 0.12259205 -0.06339375 -0.049104013
000040 9d 7c 56 3d 6c f0 87 3d e0 11 99 bd 1e 50 1a 3c
       0.052364934 0.06637654 -0.074741125 0.0094185155
000050 a9 80 c9 3d 50 7b 82 3d c1 67 80 bd ad e9 c5 bd
       0.09838993 0.06371176 -0.062697895 -0.09663711
000060 fa d5 29 bd 07 82 52 3d f3 8f ee 3d bc 05 90 39
       -0.04146383 0.051393535 0.1164855 0.00027470093
000070 5c d9 08 3c b7 ef cd b9 90 b4 0b 3d f0 83 80 3b
       0.008352604 -0.00039279248 0.034107745 0.003921978
000080 98 b5 6b 3d db a7 9b bd a5 b8 dc bc 49 49 43 3c
       0.05754623 -0.07600375 -0.026943514 0.011919328
000090 de 74 6e 3d 08 14 c2 bd 28 8b 9a bb 15 30 a0 3c
       0.058216922 -0.09476477 -0.0047162957 0.019554177
0000a0 37 f2 1f 3d 4f ed 48 bc fd 35 50 bc cc b9 e6 bb
       0.039049353 -0.01226361 -0.012708184 -0.0070411917
0000b0 9b fb c2 bd 26 30 9e bd 22 3e 54 3a 1b ff b8 3d
       -0.09520646 -0.07724027 0.0008096417 0.090330325
0000c0 e2 0c 9b 3d 45 2c 0b be c5 66 4d bc 18 ab f6 bd
       0.075708166 -0.13591106 -0.012536709 -0.12044352
0000d0 47 0d e6 bd 53 f1 88 bb 94 6e 89 3d aa 7e 16 3d
       -0.11233001 -0.0041791587 0.06710544 0.03674189
0000e0 a5 e4 4f bd ec 16 e2 bd 6b e7 6b bd b5 31 36 3d
       -0.05075516 -0.11039528 -0.057593744 0.044480998
0000f0 17 0a 19 bb 09 92 02 bd 2c de 28 3d 9f df 9b bd
       -0.0023351961 -0.03187755 0.041227505 -0.07611012

rnn.bias_hh_l0 f4 [64]
000000 d3 c4 85 bd d7 07 cb bd 1c af b2 3d 87 bd a0 bd
       -0.06531682 -0.09913605 0.08724806 -0.078486495
000010 21 1c e0 bc ef 2b 8f bd 38 46 da bc 27 8f bd bd
       -0.027357163 -0.069908015 -0.026644811 -0.0925582
000020 05 86 27 3d da 5c 40 bd 61 cc c4 3d 97 9b 35 bd
       0.040899295 -0.04696355 0.09609295 -0.044337835
000030 68 c4 d7 3d 95 25 b3 bd 4f fa ad bd a6 43 9b bd
       0.105355084 -0.087474026 -0.08495008 -0.07581262
000040 f0 0e d1 bd 2a 34 91 3d 88 f9 55 3d 58 7a da bd
       -0.10207927 0.07090028 0.052239925 -0.106678665
000050 3b 30 7a bc c8 e0 64 3d 60 39 c1 bd 81 d1 0b 3c
       -0.015270288 0.05587843 -0.094347715 0.008533836
000060 ff ca d7 bd 71 9a 06 bd 1f 9f 8b 3d 18 ff d2 bd
       -0.10536765 -0.03286213 0.06817459 -0.103025615
000070 9d 20 82 3c a9 6b ef 3d fb 07 e6 3d 7e 2e a5 3d
       0.015884692 0.116904564 0.11231991 0.08065508
000080 9d ce b3 bb 2c f7 22 bd c2 08 d9 3d ba 3e b0 3c
       -0.0054872767 -0.039786503 0.105973735 0.021514285
000090 b2 29 38 bd 94 a6 9a bc 6a 33 cc bd ac 6f 31 bd
       -0.04496164 -0.018878259 -0.09970744 -0.04331939
0000a0 f3 65 eb bd 28 4e c5 3d ac b2 16 3d ce 54 7a bd
       -0.11494055 0.09634048 0.03679149 -0.061116032
0000b0 25 6a f5 bd 36 af 9e 3d 22 26 b7 bc 14 09 19 bd
       -0.11983136 0.077482626 -0.02235705 -0.037362173
0000c0 bc d0 24 bd 84 2b ab 3d df f0 2a 3d 46 3b 1a bd
       -0.040238127 0.08357909 0.04173362 -0.037654184
0000d0 ed 5c 53 3c 85 da 91 3d 1e 45 69 3d 3f ab 7d 3d
       0.012900573 0.071217574 0.05695068 0.06193089
0000e0 66 47 68 3d 91 69 0a bc 9d 98 f0 3d 58 a5 0a bc
       0.056708716 -0.008448021 0.11747859 -0.008462273
0000f0 1b 34 6e bd bd 76 c7 bd e0 ab 83 bd f1 da 28 bd
       -0.05815516 -0.097394444 -0.06429267 -0.041224424

rnn.weight_ih_l1 f4 [64, 64]
000000 6a ad f4 3d ad 5d 65 3d 2f fe db bd e7 9b cd bd
       0.119471386 0.05599754 -0.10741841 -0.10039502
000010 a9 b2 a5 bd fa 71 55 3d ca 9a 33 3d 3a 84 2a bd
       -0.08090717 0.05211065 0.04384879 -0.041630007
000020 72 7b b4 3d ca 0b 1f bb 78 e7 7e bd b0 b6 a3 bd
       0.08812608 -0.0024268501 -0.062232465 -0.07993829
000030 bb 16 e9 3d 4b 71 18 be c9 c7 e0 3d 17 de 55 bd
       0.113812886 -0.14886968 0.10975606 -0.052213755
000040 aa 89 5f bc fe 4d e8 bd be 85 ed bc 01 d6 12 bc
       -0.0136436615 -0.11343001 -0.028994437 -0.008962155
000050 35 0a 4e bd a7 e5 00 be 90 ef 60 bd 88 d2 73 3d
       -0.050302703 -0.12587605 -0.054915965 0.05952695
000060 f9 26 36 3d ae 3d 06 bd bc 97 e8 bd 0c d3 e4 bd
       0.04447076 -0.032773666 -0.11357066 -0.111730665
000070 1e e3 53 3d e8 6d 44 bc 2c cf 27 bd 86 3b 8e bb
       0.051730268 -0.011989094 -0.04096906 -0.004340592
000080 ba de 02 bb 52 55 f4 3d c4 76 e8 bd a4 47 25 bd
       -0.001996918 0.11930336 -0.11350778 -0.040351525
000090 86 7b 2a 3e e7 01 83 3d 8f d3 e7 bc b4 fd 2d 3d
       0.16648683 0.06396847 -0.028299121 0.04247828
0000a0 9e 90 af bd 8f 6d 14 3c 53 a5 27 3d 31 9d 6a 3b
       -0.085725054 0.009059324 0.04092915 0.003579926
0000b0 76 80 03 3c 12 14 02 3e ad ab 9f bb a9 b2 98 bd
       0.008026233 0.12702969 -0.0048727603 -0.07455952
0000c0 42 93 bc bd 5d 86 8d 3d 5c 7c 04 be d7 81 8d bd
       -0.09207775 0.069103934 -0.12938064 -0.069095306
0000d0 45 f2 1d 3e db 65 16 bc ec 30 cb bd b3 31 a1 bd
       0.1542445 -0.009179558 -0.099214405 -0.078708075
0000e0 b5 44 8b 3d 7e fb 06 bc 2b 39 c6 3b 7e 83 80 3d
       0.06800214 -0.008238671 0.0060492954 0.0627508
0000f0 78 33 84 3d 92 a4 31 bd 7a bc 3b 3d a6 da 91 3d
       0.064551294 -0.043369837 0.045834042 0.07121782
000100 da ca cc bd a6 51 98 bd 7a fd be 3d b8 bf a8 3d
       -0.09999628 -0.07437448 0.093256906 0.082396924
000110 9f b3 0b bc 8b 68 ce 3d f2 40 ed 3d 0c c5 90 bd
       -0.008526712 0.10078534 0.11584653 -0.07068834
000120 2c 97 06 be 9b 4f 86 bd 24 22 6e bc 42 26 e7 3b
       -0.13143605 -0.06558152 -0.014534507 0.0070541212
000130 74 05 15 3c 1c 5c 7a 3d bc a8 de 3b 33 ff 59 bd
       0.009095538 0.061123 0.006795017 -0.053221893
000140 c1 a9 0a 3c 27 cf 17 3c f7 57 d7 bc 38 28 84 bd
       0.008463324 0.009265698 -0.026287062 -0.064529836
000150 1a bf d4 bd 40 8d 86 bc 15 e7 74 3d f4 de 2f bd
       -0.10388012 -0.016424775 0.05979069 -0.042937234
000160 6e 32 4e 3d d4 5a ea 3d b3 8c 7b bb d5 79 3f bd
       0.050341062 0.11443105 -0.0038383424 -0.046747047
000170 f4 fb db bd 96 e4 de bd 60 ad 01 be 3c 13 a6 3d
       -0.107414156 -0.10883443 -0.12663794 0.081091374
000180 aa 00 0e bd 24 49 bd bd 77 e6 ac 3a d6 56 dc 3d
       -0.034668602 -0.09242466 0.0013191242 0.1075875
000190 03 9b f3 3d 97 ab 17 3d 4b ae c3 bd 23 e2 07 be
       0.118948005 0.037028875 -0.09554728 -0.13269858
0001a0 1e 9a 10 3c 69 a9 ee bd e3 57 58 bd 7c 85 59 3d
       0.008825807 -0.11653406 -0.05281819 0.053105816
0001b0 ba ff f1 3d 58 11 ee bc 10 7a d1 bd d7 e1 b0 3c
       0.11816354 -0.029061005 -0.1022836 0.021592064
0001c0 f3 7d f0 bc ed bc b9 3a 4b 24 8f bd ec ba 5a bd
       -0.029356932 0.0014170684 -0.06989344 -0.05340092
0001d0 f9 86 be bd cc 91 01 3e b0 a3 db bb f0 4d d5 3d
       -0.09303088 0.12653273 -0.0067028627 0.10415256
0001e0 73 b2 be bd df 98 42 3d 89 32 ce bd 76 fc a0 bd
       -0.0931138 0.04750907 -0.100682326 -0.07860653
0001f0 3f 8b 1c bd 76 b4 a6 3d 92 43 1e bd 99 65 4f bd
       -0.038218733 0.08139889 -0.03863866 -0.050634
000200 2a 76 98 3d 5f a4 86 3d 76 6d 03 be 81 46 3e bc
       0.07444413 0.0657432 -0.12834725 -0.011613489
000210 49 7b 59 3d 9d 24 3d bc 56 b5 a3 3d ed 0b 9b bd
       0.05309609 -0.011544374 0.079935715 -0.07570634
000220 f0 ee d3 bd 4c 0f 6a bd f0 16 95 bd 0a 02 d8 bc
       -0.10348308 -0.057143494 -0.072797656 -0.02636816
000230 5d bb 10 bd 76 19 3a bd c4 bf 73 bc 81 28 90 bd
       -0.035334934 -0.045434438 -0.014877263 -0.070389755
000240 a1 20 b7 bd 5d 22 db bd 29 0a 14 3d cf df 2c bd
       -0.0894177 -0.10699914 0.036142502 -0.042205628
000250 89 f8 bf bd 83 fc c0 3d 51 ad 9b 3d 9b 25 c3 3d
       -0.09373576 0.09423163 0.07601417 0.09528657
000260 a6 f7 2c bd 43 1b 3c 3d 4c b2 b1 bd 97 ba de 3d
       -0.042228363 0.045924436 -0.086765856 0.10875433
000270 56 e4 a0 bd 5d 39 d7 3d cb 65 22 bc a3 d5 e4 3c
       -0.078560516 0.10508988 -0.009911965 0.027933901
000280 e0 26 c9 3d 73 12 0d 3c 75 72 81 3d 95 e0 7d 3d
       0.09821868 0.008610356 0.06320659 0.061981756
000290 71 3f 06 bd 54 ce c6 3d 2e 11 08 bd c0 b0 c3 bd
       -0.032775346 0.09707323 -0.03321951 -0.09555197
0002a0 1c ca 9e bd 8a 8e 26 3d fb fe 68 bc 12 8c cb bd
       -0.07753393 0.04066328 -0.014220948 -0.09938826
0002b0 fc 26 c9 3d a2 d5 9c 3d 11 86 c8 bd 88 93 2c bd
       0.09821889 0.07657935 -0.09791196 -0.042132884
0002c0 21 42 a1 3d e3 1f 27 be 82 3d 46 bd 95 bd 04 be
       0.07873941 -0.16320758 -0.048398502 -0.12962945
0002d0 22 a3 09 3e 45 1f db 3d 56 0a a0 3d c2 74 35 bd
       0.13441136 0.106993236 0.078144714 -0.044300802
0002e0 ee 8b 86 3d 8b c7 01 3e 50 41 49 3c 0a e7 85 3d
       0.06569658 0.12673776 0.012283638 0.06538208
0002f0 46 30 29 3d 15 a5 b9 3d 0a 3e c4 bd a3 bc e4 bd
       0.041305803 0.0906469 -0.095821455 -0.11168792
000300 7c 04 88 bd dc 1e db bd 39 62 3a bd 8c 49 57 bd
       -0.0664148 -0.10699245 -0.04550383 -0.052560374
000310 30 f4 c7 bd 70 7d c7 3d 7d 8b 84 bd a6 90 1b bc
       -0.09763372 0.09740722 -0.06471918 -0.009494936
000320 0f 9a 86 3d c0 16 cf 3d c9 55 b5 3d ea d9 5d bd
       0.06572353 0.10111761 0.08854253 -0.054162897
000330 19 65 01 bd ba 34 84 3d b5 78 6e bd 7b 9c 80 bd
       -0.031590555 0.06455369 -0.058220584 -0.06279846
000340 e6 19 20 3d a4 e8 40 3d db 75 53 bd 80 7e 9c 3d
       0.0390872 0.047096863 -0.051626068 0.076413155
000350 b7 8d f2 3b 8c b4 89 3d 00 42 a8 bd 6e 5d e8 bd
       0.0074021476 0.0672389 -0.082157135 -0.11345945
000360 ef 6b e3 bd e0 99 f6 bc 5f a8 2a bc ab 4c 6f bd
       -0.11104571 -0.03010267 -0.010416119 -0.058422726
000370 1b 3f 26 3c f2 39 9f bd 5d d1 3d 3d d3 38 b0 bb
       0.010146881 -0.07774724 0.046342243 -0.0053778677
000380 fc 69 af 3c a9 4b 0e bd 25 12 ba bb a1 fa c3 bd
       0.021412842 -0.034740124 -0.0056784325 -0.09569288
000390 0e c9 b9 3d 55 86 8a 3d 7b f8 cc 3c 01 fc 91 3d
       0.09071551 0.06763903 0.025020828 0.07128144
0003a0 bf a2 5f 3c 3f c8 c8 3d 82 ae c0 3d 4c fa ec bd
       0.013649642 0.09803819 0.09408285 -0.11571178
0003b0 b7 6c d9 bd 47 fc 6a 3d b9 92 02 bd 96 51 09 3e
       -0.10616439 0.057369497 -0.031878207 0.13410029
0003c0 b4 61 b8 bc fc 53 cc bd c3 cb ef bc b4 48 29 3d
       -0.022507526 -0.09976956 -0.029271966 0.0413291
0003d0 e6 4f d1 bd 7f bd 52 bc cc cb e9 bd 97 4b cc bd
       -0.102203175 -0.012862562 -0.11415824 -0.09975355
0003e0 56 f5 0f 3d d5 62 57 bd b6 42 83 bd ce aa d7 3d
       0.03514608 -0.052584488 -0.064092085 0.10530625
0003f0 f2 6a 20 3d 63 7c b2 3d 53 26 41 3d 6a c2 87 bd
       0.03916449 0.08715131 0.04715569 -0.066288784

rnn.weight_hh_l1 f4 [64, 64]
000000 c4 56 dd bd e1 e0 84 3d 72 de 1a bd 9a 42 e7 3d
       -0.10807565 0.06488205 -0.037809797 0.11292
000010 ae 30 85 bd 73 5d a7 bd fa ca 65 3d 9a d9 68 bd
       -0.065034255 -0.08172121 0.056101777 -0.056848146
000020 16 a5 c3 3d 9d 39 f8 3d 9f 62 c7 3d da c5 b7 bd
       0.09552972 0.12120364 0.09735607 -0.08973284
000030 0d 84 ff 3d c4 31 9f bd 85 e9 ea 3d 1f 36 98 ba
       0.124763586 -0.07773164 0.114703216 -0.0011612809
000040 37 8e 52 bd d1 b0 88 bd e2 c0 b6 3b b7 86 57 bd
       -0.051405158 -0.0667435 0.0055771926 -0.05261871
000050 d1 83 e0 bd d3 44 a8 3d b1 a3 78 bd 0d 08 0f 3d
       -0.10962642 0.08216252 -0.060702983 0.034919787
000060 8f e0 ed bc 1b 90 06 3e 4a 17 77 3b 9e 54 37 bc
       -0.029037742 0.1314091 0.003770309 -0.011189608
000070 f2 d8 91 bd c0 18 18 3d 3a 67 7c 3c ae 8b 94 3d
       -0.07121457 0.03713298 0.0154054705 0.07253204
000080 51 3a cf 3d af bb e5 bd a8 e3 6e bd b1 aa 24 bd
       0.10118545 -0.112174384 -0.05832258 -0.040201847
000090 43 4d b6 3c b7 fd 30 bd 29 40 d7 3c ac 52 0a 3d
       0.022253638 -0.04321071 0.026275711 0.03377025
0000a0 9e 03 fc bc 5f 5b 6d bd 44 27 85 3c d7 40 c2 3b
       -0.030763444 -0.057948466 0.016254075 0.0059281397
0000b0 c7 85 a6 bc f2 14 d0 bd 86 76 13 3d 58 de c7 3b
       -0.020327462 -0.10160245 0.036001705 0.0060995035
0000c0 96 34 50 3d 82 bb ef b9 99 9e 99 bc 12 52 e8 bd
       0.0508314 -0.00045725337 -0.018752383 -0.11343779
0000d0 3d 66 b9 bd 6b 2b b7 3b 69 99 e7 3d 7f 3b 2d bd
       -0.090527035 0.0055898926 0.113085575 -0.042293068
0000e0 69 f4 00 be a0 6d 13 bd fe 1d de 3d 74 d8 47 3d
       -0.12593235 -0.03599322 0.10845564 0.04879041
0000f0 3f dd e1 bd 3f f6 c9 3d bb 67 f7 3d 07 3e 3e 3d
       -0.110285275 0.09861421 0.12080332 0.046445873
000100 56 bf a5 3d cd 04 ce bd 0e a8 e7 bd 2e 96 d1 3d
       0.08093135 -0.100595094 -0.11311351 0.102337226
000110 f3 a1 a7 3d d8 b7 47 bd 9d 1e f1 3d e5 c8 81 3d
       0.08185186 -0.04875931 0.11773417 0.06337146
000120 94 c2 7c 3c 48 c6 64 3d e0 fa d4 3c 15 7e 1a bd
       0.01542725 0.05585316 0.025998533 -0.037717897
000130 25 51 d8 bd 65 50 53 bd 36 3a c9 bd 55 2e ba 3d
       -0.10562352 -0.051590342 -0.09825556 0.090908684
000140 59 2f a7 bc 05 48 6e 3d 2c 46 e3 3d a1 fe 23 3c
       -0.02040832 0.058174152 0.110973686 0.010009439
000150 50 67 a0 3c 73 6c d4 3d 02 52 91 3d 5f d6 99 bc
       0.019580513 0.103722475 0.0709572 -0.018778978
000160 bb 65 15 3d 78 b2 0d 3d bd 0d 6d bd 8a a8 d2 bb
       0.03647397 0.03459403 -0.05787443 -0.006428783
000170 77 97 52 bd 93 f9 ed 3c c8 21 f3 bd f4 07 04 3e
       -0.05141398 0.02904967 -0.11871678 0.12893659
000180 68 7e 8b 3d fb 11 20 bd 7f 09 ad 3d 8c e1 38 3d
       0.068112195 -0.039079648 0.08449077 0.045136973
000190 03 58 94 3c 75 d3 15 3d db 27 f7 3c 00 ae 98 3d
       0.018108374 0.036578614 0.030170372 0.07455063
0001a0 a0 c5 cb bd 0b 03 4a bd e9 3c 88 bd df 4c 7b bd
       -0.09949803 -0.04931931 -0.06652243 -0.061352607
0001b0 ef b5 f4 bc be dd 98 3d 44 df f5 3b 32 41 96 bd
       -0.029871909 0.07464169 0.007503422 -0.07336654
0001c0 ec 74 83 bd 0a e6 ac bd 67 48 a0 3d 3e e0 e2 bd
       -0.064187855 -0.08442314 0.0782631 -0.11077927
0001d0 a6 b5 41 3d 44 12 39 bd dd 3d 8c bd 9c 0e e2 3d
       0.047292374 -0.045183435 -0.06847737 0.11037943
0001e0 1e ed cf 3d 8e 09 06 3e 2e 3d f5 3d 48 45 70 3a
       0.101526484 0.13089582 0.1197456 0.0009165597
0001f0 94 05 5d bd 0e 86 e1 bd c0 96 82 3b 52 e0 91 3c
       -0.053960398 -0.11011897 0.003985256 0.01780716
000200 1f 0f 89 3d 41 1d 7f bd 4a a6 b9 3d 39 cd d9 3d
       0.06692337 -0.062283758 0.0906492 0.10634846
000210 00 97 5e b7 e6 37 d5 bd f3 cb c6 bd 1e 87 ad 3d
       -1.3267389e-05 -0.104110524 -0.09706869 0.08473037
000220 6b 6e b6 bb 32 14 68 3d 0a 8e 07 bd 58 23 14 3d
       -0.005567362 0.056659885 -0.033094443 0.03616652
000230 6d a4 d6 3d 47 1b 6e 3d 5f b1 98 3d 3b 07 af 3d
       0.104805805 0.058131482 0.07455706 0.08546301
000240 84 0c a6 3c 38 bf de bc ea d6 df 3d 38 35 c3 bd
       0.02026964 -0.02719079 0.109296635 -0.09531635
000250 67 60 94 3d 1a 13 86 bd 18 f9 66 3d f5 06 e5 bd
       0.0724495 -0.06546612 0.056389898 -0.111829676
000260 58 27 a1 3d 09 18 7a 3d e1 10 72 3c 48 c1 2f 3d
       0.07868832 0.061058078 0.014774532 0.042908937
000270 e1 94 c3 bd 6c f6 81 bd 4a 4f 8f bd 8a b2 88 bd
       -0.09549881 -0.06345829 -0.06997545 -0.066746786
000280 c2 68 8f 3d 45 02 b9 3d ce 3a 56 bd 8d e8 3b ba
       0.07002403 0.09033636 -0.052302174 -0.00071681367
000290 57 0a b0 bd e4 d8 fb 3d 56 24 9d bd 01 4e 32 3d
       -0.08595722 0.12297228 -0.07672946 0.04353142
0002a0 39 1a c0 3d 00 22 bc 3d af 97 01 be 59 e5 d4 bd
       0.093800016 0.091861725 -0.12655519 -0.10395307
0002b0 d7 c0 e6 3d 1b 66 ce 3d 75 7b 58 bd b2 88 30 3d
       0.1126725 0.10078069 -0.052852113 0.043099113
0002c0 d8 63 7c 3d 3a 2b 87 3d c6 76 61 bd e7 50 c4 3d
       0.061618656 0.06600042 -0.05504491 0.095857434
0002d0 c3 fb e4 bd 78 11 c2 bd 95 a2 c9 3d 59 ed 78 3d
       -0.11180832 -0.09475988 0.09845463 0.060773227
0002e0 a2 3c 51 bd 67 f3 eb bd 38 3d a9 3b 4d 7e ba bd
       -0.051083215 -0.11521035 0.0051647685 -0.09106121
0002f0 c0 6b 2b 3d 99 1e 8b 3d 20 a8 34 3c 8d 2b eb 3d
       0.041850805 0.067929454 0.011026412 0.11482916
000300 7b 44 44 3d ee 02 da 3b 83 12 9d 3d d6 70 b2 3c
       0.04791687 0.0066531813 0.076695465 0.02178232
000310 74 3e 14 3d 8b a5 db 3d f8 14 e7 bc a3 0a 8c bd
       0.036192372 0.10724934 -0.02820824 -0.06837966
000320 08 e4 1e bd 92 05 fc 3d 53 ee 88 bc 8e 0d 21 3d
       -0.038791686 0.1230575 -0.016715204 0.039319567
000330 33 88 dc bc 6b cf 70 3c b9 f3 08 bb 49 a3 9d 3d
       -0.026920414 0.01469789 -0.0020897223 0.0769716
000340 d1 e8 fe bc 7d 42 bb bd 1e bd ea 3c 4e 10 3f 3d
       -0.031116875 -0.09143541 0.028654631 0.04664641
000350 24 c7 b8 bd df 67 f3 bc 2a 07 8d bd a6 01 76 bc
       -0.09022358 -0.029712616 -0.06886132 -0.015015041
000360 e4 cb e4 3d 6b b9 9b 3d 28 f9 85 3d 10 b4 89 bc
       0.111717016 0.07603725 0.065416634 -0.016809493
000370 e5 c2 1e 3d 0e a9 87 bc c3 e6 ea 3d b6 4f f8 bc
       0.038760085 -0.016560104 0.114697956 -0.030311447
000380 2b 96 c9 3d 5d 26 ea bd 9d 1c 9e bd 33 ec 8a 3d
       0.098430954 -0.114330985 -0.07720301 0.06783333
000390 47 66 50 bd fe 14 d4 bb 35 ce e5 3d e0 22 81 39
       -0.05087879 -0.006472229 0.112209715 0.0002463078
0003a0 97 96 e8 bd 22 11 e7 3b 23 42 ad 3d 8f 0a 25 3d
       -0.11356848 0.007051603 0.0845988 0.040293273
0003b0 97 8f 79 3d 4a ec 94 3d 8e f4 b9 bd 61 cc a9 3d
       0.060927954 0.07271631 -0.09079848 0.08290935
0003c0 4d cc c9 3d ed b8 fb 3d 64 1c d3 bd d1 c4 e7 bd
       0.098534204 0.12291131 -0.103081495 -0.113168366
0003d0 7b 0b 20 3d 79 d6 0b bd 85 e9 03 3d b4 b4 b1 bd
       0.03907345 -0.034140084 0.032205123 -0.086770445
0003e0 c7 4b b1 3d 0a 00 6e 3c d0 8c 78 3d f8 0c c9 bd
       0.086570315 0.0145263765 0.060681164 -0.09816927
0003f0 ae ce e1 bd 14 41 52 bd ee 0b 73 3d 66 d4 b4 bd
       -0.11025749 -0.051331595 0.05933755 -0.08829574

rnn.bias_ih_l1 f4 [64]
000000 62 5e fb bd 43 83 ac bc 06 92 8c 3d f9 93 03 be
       -0.122738615 -0.021058684 0.06863789 -0.12849416
000010 cb 77 ee 3c 22 3e 66 bd 62 bf e2 bd 20 a3 ed 3d
       0.029109856 -0.0562116 -0.110716596 0.11603379
000020 f4 ab f2 bc 22 67 1f bd c4 e2 d1 3c d3 0e cf bd
       -0.02962301 -0.038916714 0.025620826 -0.10110249
000030 f2 00 0a bd ea 80 87 bd fb 49 85 3d e0 48 2a bd
       -0.033692308 -0.06616385 0.06508251 -0.041573405
000040 a5 18 90 bd c4 ca eb 3c 65 86 19 bc 5f 06 38 bd
       -0.070359506 0.02878321 -0.009370421 -0.04492795
000050 b9 30 83 3d 37 01 f0 3d 92 22 07 bd c0 05 17 3a
       0.064057775 0.11718982 -0.032991953 0.00057610497
000060 e1 9c 23 3d 18 91 da bd 10 19 e9 bd 41 94 09 3d
       0.039944533 -0.10672206 -0.113817334 0.03358865
000070 d7 29 87 bc 58 0e 52 3d cd 88 91 bd d1 cf e4 bd
       -0.016499443 0.05128321 -0.07106171 -0.1117245
000080 d0 36 ab 3c 6f 99 de bd 5d bc c6 bd 2a 10 68 3d
       0.02090016 -0.10869109 -0.09703896 0.05665604
000090 b7 a8 5c bd 7d c3 b2 3d c7 07 92 3c 52 c8 42 bd
       -0.053871837 0.08728693 0.017825974 -0.04755432
0000a0 fb 57 e2 bc d3 4a 48 bc a6 6a d2 3c 6e 5b 84 bd
       -0.027629843 -0.012224871 0.02568562 -0.06462751
0000b0 b3 31 da 3d 7c fa c2 bd 78 ae 07 3c 62 be e2 3d
       0.106540106 -0.09520432 0.008281343 0.11071469
0000c0 78 38 97 3d f5 63 ae bc 9a 19 88 3d 3d 3c d2 3d
       0.073838174 -0.021287898 0.06645508 0.10265396
0000d0 2c 11 f5 bd 35 93 b0 bd be 63 d1 bd 43 f3 33 bd
       -0.11966166 -0.086218275 -0.102241024 -0.043933164
0000e0 4a c3 1c bd d6 52 93 bd 8a 8d ff bd 40 64 ed bd
       -0.03827218 -0.07193534 -0.12478168 -0.11591387
0000f0 3e b3 91 bd 44 63 7d bd 8e e7 64 bd 46 39 01 be
       -0.07114266 -0.061862245 -0.05588489 -0.12619504

rnn.bias_hh_l1 f4 [64]
000000 03 c7 09 3d ce 1c db 3d 42 72 65 bd 9e c3 83 bd
       0.033637058 0.106988534 -0.056017168 -0.064337954
000010 f8 bf c1 3d ca 20 48 bd bd 5f 66 bd 68 2e a4 3d
       0.09460443 -0.048859395 -0.056243647 0.08016664
000020 8a 2f af bd 08 27 90 bd bd 69 fe bc ab 81 a1 3d
       -0.08553989 -0.070386946 -0.03105628 0.0788606
000030 cd 72 f2 3d da 3b 76 3c e6 cd e7 3d 0a aa 05 be
       0.11838303 0.015028918 0.11318569 -0.13053146
000040 83 55 91 bd ac 8f cc bc ac 06 20 3d e7 74 66 3c
       -0.07096388 -0.024970852 0.039068863 0.014065958
000050 74 9b 90 3d f5 aa ca bd f3 b1 de bc 7e bc fe 3d
       0.070609 -0.09895889 -0.027184462 0.12438296
000060 6d c4 72 3d da 5a 19 3c 84 14 55 bd 99 c7 8f 3d
       0.059269357 0.00936004 -0.05202152 0.07020492
000070 aa 58 9f 3d ff 67 ac 3c 70 08 4f bd cf 12 7a 3d
       0.07780583 0.021045683 -0.050545156 0.061053094
000080 e4 1f c0 3d 0d 36 a0 bd 2d 58 8e bd 59 40 b3 3d
       0.09381083 -0.07822809 -0.06950412 0.08752508
000090 d1 8f 02 3e b9 1c 95 bd 0f 96 7a bd a9 f1 a9 3d
       0.12750174 -0.07280869 -0.061178263 0.08298046
0000a0 3b 3b 91 3d de fb f5 3d 8d 94 e1 3d 33 c7 9c 3c
       0.070913754 0.120109305 0.11014662 0.019137954
0000b0 61 92 02 be 32 b2 c7 bd c9 a3 b4 bc ca 1d ac bd
       -0.12751152 -0.09750785 -0.022050755 -0.08404119
0000c0 d3 ae 38 3d c8 27 d1 bd 89 91 df bd 63 97 2a bd
       0.0450886 -0.10212666 -0.109164305 -0.04164828
0000d0 63 e5 1f bd 31 ae 03 be bc 59 66 3c c1 c9 52 3d
       -0.03903712 -0.12859417 0.01405948 0.05146194
0000e0 95 9d ec 3d 7b 7d 7a 3d 12 c1 d8 bd 78 53 cb bd
       0.11553494 0.061154824 -0.105837 -0.0992803
0000f0 a7 ba c6 bc e1 85 ee 3d 42 3f 75 3c 69 00 bc 3d
       -0.024258925 0.11646629 0.014968695 0.09179766

fc.weight f4 [1, 64]
000000 59 be dc bd 5c 4a b8 bd 4e c7 8c bd 0b 1f 83 bd
       -0.107784934 -0.08998558 -0.06873952 -0.06402405
000010 92 c3 00 be b3 84 97 bc 3e 01 df 3d 2b 6a b3 3d
       -0.12574604 -0.018495893 0.10888909 0.08760484
000020 78 2e 3d 3d 09 5b cf 3c 14 99 de bd 23 c4 82 3d
       0.046186894 0.025311964 -0.10869041 0.06385066
000030 4f ae f1 3c 03 f8 ff 3b 5d b4 c3 3d 56 b0 78 bd
       0.029502062 0.0078115477 0.09555886 -0.060715042
000040 bd 02 e8 bd 86 d4 bd 3d f3 f9 12 3d d0 c5 c9 3d
       -0.11328647 0.09269051 0.0358829 0.09852183
000050 8d da b8 3d 3e 16 07 3d 2b be b8 3d 2c c7 f6 3d
       0.0902606 0.032980196 0.09020647 0.12049708
000060 4a 4f dd 3c 55 6d 87 bd 12 00 a2 bd 65 1d 39 3c
       0.027015347 -0.0661265 -0.0791017 0.011298512
000070 99 e1 95 bd ae 22 2e bd a2 97 95 bd c1 74 3f bd
       -0.0731842 -0.042513542 -0.07304312 -0.046742205
000080 43 3e e8 3d 26 b1 13 3d 6c a4 ae bd 8c bb ba 3c
       0.113400005 0.036057614 -0.08527455 0.022794507
000090 33 f3 5f 3d 09 ae 0b 3c 0d bf e2 bc 40 8c 1b 3d
       0.054675292 0.00852538 -0.02767899 0.03797555
0000a0 b7 52 da bc 3b 01 ce 3b db d7 4b bb 79 70 b6 bd
       -0.02665077 0.006286768 -0.0031104002 -0.08908171
0000b0 ee a5 00 be e1 77 d5 3b fc 07 db 3d 12 f1 63 3d
       -0.12563297 0.006514535 0.10694882 0.055649824
0000c0 af cb 77 3d 9e 82 a5 bd 74 54 03 3e 4d 04 84 3d
       0.060496982 -0.08081554 0.12825185 0.06446133
0000d0 89 53 8c bd e7 e5 0e 3b 5b f4 6e 3d 47 7e 4f bd
       -0.068518706 0.0021804513 0.058338504 -0.050657537
0000e0 ec 39 e0 bd 42 ed 55 bc e4 bb bb bd 09 25 fc bd
       -0.10948548 -0.013057055 -0.09166697 -0.123117514
0000f0 9f 96 2e bd d6 d2 9a 3d 01 e2 a7 3d 68 e6 61 3d
       -0.042624112 0.07559745 0.08197404 0.055151373
